…
2024-03-21 14:43:07.092492: I tensorflow/compiler/xla/service/service.cc:168] XLA service 0x17fe65670d0 initialized for platform Host (this does not guarantee that XLA will be used). Devices:
2024-03-21 14:43:07.092956: I tensorflow/compiler/xla/service/service.cc:176]   StreamExecutor device (0): Host, Default Version
Found 731 files belonging to 5 classes.
['daisy', 'dandelion', 'roses', 'sunflowers', 'tulips']
Model: "sequential"
_________________________________________________________________
Layer (type)                 Output Shape              Param #
=================================================================
rescaling (Rescaling)        (None, 224, 224, 3)       0
_________________________________________________________________
conv2d (Conv2D)              (None, 222, 222, 32)      896
_________________________________________________________________
max_pooling2d (MaxPooling2D) (None, 111, 111, 32)      0
_________________________________________________________________
conv2d_1 (Conv2D)            (None, 109, 109, 64)      18496
_________________________________________________________________
max_pooling2d_1 (MaxPooling2 (None, 54, 54, 64)        0
_________________________________________________________________
flatten (Flatten)            (None, 186624)            0
_________________________________________________________________
dense (Dense)                (None, 128)               23888000
_________________________________________________________________
dense_1 (Dense)              (None, 5)                 645
=================================================================
Total params: 23,908,037
Trainable params: 23,908,037
Non-trainable params: 0
_________________________________________________________________
Epoch 1/30
184/184 [==============================] - 105s 571ms/step - loss: 1.4876 - accuracy: 0.3362 - val_loss: 1.5063 - val_accuracy: 0.2722
Epoch 2/30
184/184 [==============================] - 71s 387ms/step - loss: 1.2097 - accuracy: 0.4883 - val_loss: 1.1509 - val_accuracy: 0.5075
…
